Not using distributed mode
DistributedDlrm(
  interaction_op=dot, hash_indices=False
  (bottom_model): DlrmBottom(
    (embeddings): MultiTableEmbeddings(
      (embeddings): ModuleList(
        (0): Embedding(embedding_type=native, num_embeddings=8165896, embedding_dim=128, precision=fp16, size=1993.627 MB)
        (1): Embedding(embedding_type=native, num_embeddings=7912889, embedding_dim=128, precision=fp16, size=1931.8577 MB)
        (2): Embedding(embedding_type=native, num_embeddings=7156453, embedding_dim=128, precision=fp16, size=1747.1809 MB)
        (3): Embedding(embedding_type=native, num_embeddings=5554114, embedding_dim=128, precision=fp16, size=1355.9849 MB)
        (4): Embedding(embedding_type=native, num_embeddings=2675940, embedding_dim=128, precision=fp16, size=653.3057 MB)
        (5): Embedding(embedding_type=native, num_embeddings=582469, embedding_dim=128, precision=fp16, size=142.2043 MB)
        (6): Embedding(embedding_type=native, num_embeddings=302516, embedding_dim=128, precision=fp16, size=73.8564 MB)
        (7): Embedding(embedding_type=native, num_embeddings=245828, embedding_dim=128, precision=fp16, size=60.0166 MB)
        (8): Embedding(embedding_type=native, num_embeddings=33823, embedding_dim=128, precision=fp16, size=8.2576 MB)
        (9): Embedding(embedding_type=native, num_embeddings=20046, embedding_dim=128, precision=fp16, size=4.894 MB)
        (10): Embedding(embedding_type=native, num_embeddings=17139, embedding_dim=128, precision=fp16, size=4.1843 MB)
        (11): Embedding(embedding_type=native, num_embeddings=12022, embedding_dim=128, precision=fp16, size=2.9351 MB)
        (12): Embedding(embedding_type=native, num_embeddings=10667, embedding_dim=128, precision=fp16, size=2.6042 MB)
        (13): Embedding(embedding_type=native, num_embeddings=7339, embedding_dim=128, precision=fp16, size=1.7917 MB)
        (14): Embedding(embedding_type=native, num_embeddings=7105, embedding_dim=128, precision=fp16, size=1.7346 MB)
        (15): Embedding(embedding_type=native, num_embeddings=2209, embedding_dim=128, precision=fp16, size=0.5393 MB)
        (16): Embedding(embedding_type=native, num_embeddings=1382, embedding_dim=128, precision=fp16, size=0.3374 MB)
        (17): Embedding(embedding_type=native, num_embeddings=968, embedding_dim=128, precision=fp16, size=0.2363 MB)
        (18): Embedding(embedding_type=native, num_embeddings=104, embedding_dim=128, precision=fp16, size=0.0254 MB)
        (19): Embedding(embedding_type=native, num_embeddings=97, embedding_dim=128, precision=fp16, size=0.0237 MB)
        (20): Embedding(embedding_type=native, num_embeddings=63, embedding_dim=128, precision=fp16, size=0.0154 MB)
        (21): Embedding(embedding_type=native, num_embeddings=35, embedding_dim=128, precision=fp16, size=0.0085 MB)
        (22): Embedding(embedding_type=native, num_embeddings=15, embedding_dim=128, precision=fp16, size=0.0037 MB)
        (23): Embedding(embedding_type=native, num_embeddings=11, embedding_dim=128, precision=fp16, size=0.0027 MB)
        (24-25): 2 x Embedding(embedding_type=native, num_embeddings=4, embedding_dim=128, precision=fp16, size=0.001 MB)
      )
    )
    (mlp): TorchMlp(
      (layers): Sequential(
        (0): Linear(in_features=13, out_features=512, bias=True)
        (1): ReLU(inplace=True)
        (2): Linear(in_features=512, out_features=256, bias=True)
        (3): ReLU(inplace=True)
        (4): Linear(in_features=256, out_features=128, bias=True)
        (5): ReLU(inplace=True)
      )
    )
  )
  (top_model): DlrmTop(
    (mlp): TorchMlp(
      (layers): Sequential(
        (0): Linear(in_features=480, out_features=1024, bias=True)
        (1): ReLU(inplace=True)
        (2): Linear(in_features=1024, out_features=1024, bias=True)
        (3): ReLU(inplace=True)
        (4): Linear(in_features=1024, out_features=512, bias=True)
        (5): ReLU(inplace=True)
        (6): Linear(in_features=512, out_features=256, bias=True)
        (7): ReLU(inplace=True)
      )
    )
    (out): Linear(in_features=256, out_features=1, bias=True)
  )
)
&&&& RUNNING TensorRT.trtexec [TensorRT v8601] # trtexec --onnx=./model.onnx --staticPlugins=/usr/local/lib/python3.10/dist-packages/pytorch_embeddings/frobenius_operator/tensorrt/libfrobenius_operatorPlugin.so --loadInputs=numerical_features:./numerical_features.dat,categorical_features:./categorical_features.dat --inputIOFormats=fp16:chw,int32:ch
…
