Not using distributed mode
DistributedDlrm(
  interaction_op=dot, hash_indices=False
  (bottom_model): DlrmBottom(
    (embeddings): MultiTableEmbeddings(
      (embeddings): ModuleList(
        (0): Embedding(embedding_type=frobenius, num_embeddings=48937457, embedding_dim=128, precision=fp16, size=0.4282 MB, frobenius_rank=8, frobenius_blocks=4)
        (1): Embedding(embedding_type=frobenius, num_embeddings=45833188, embedding_dim=128, precision=fp16, size=0.4144 MB, frobenius_rank=8, frobenius_blocks=4)
        (2): Embedding(embedding_type=frobenius, num_embeddings=40094537, embedding_dim=128, precision=fp16, size=0.3878 MB, frobenius_rank=8, frobenius_blocks=4)
        (3): Embedding(embedding_type=frobenius, num_embeddings=29275261, embedding_dim=128, precision=fp16, size=0.3314 MB, frobenius_rank=8, frobenius_blocks=4)
        (4): Embedding(embedding_type=frobenius, num_embeddings=11316796, embedding_dim=128, precision=fp16, size=0.2067 MB, frobenius_rank=8, frobenius_blocks=4)
        (5): Embedding(embedding_type=native, num_embeddings=1572176, embedding_dim=128, precision=fp16, size=383.832 MB)
        (6): Embedding(embedding_type=native, num_embeddings=452104, embedding_dim=128, precision=fp16, size=110.377 MB)
        (7): Embedding(embedding_type=native, num_embeddings=345139, embedding_dim=128, precision=fp16, size=84.2625 MB)
        (8): Embedding(embedding_type=native, num_embeddings=36747, embedding_dim=128, precision=fp16, size=8.9714 MB)
        (9): Embedding(embedding_type=native, num_embeddings=20244, embedding_dim=128, precision=fp16, size=4.9424 MB)
        (10): Embedding(embedding_type=native, num_embeddings=17246, embedding_dim=128, precision=fp16, size=4.2104 MB)
        (11): Embedding(embedding_type=native, num_embeddings=12607, embedding_dim=128, precision=fp16, size=3.0779 MB)
        (12): Embedding(embedding_type=native, num_embeddings=11268, embedding_dim=128, precision=fp16, size=2.751 MB)
        (13): Embedding(embedding_type=native, num_embeddings=7414, embedding_dim=128, precision=fp16, size=1.8101 MB)
        (14): Embedding(embedding_type=native, num_embeddings=7115, embedding_dim=128, precision=fp16, size=1.7371 MB)
        (15): Embedding(embedding_type=native, num_embeddings=2209, embedding_dim=128, precision=fp16, size=0.5393 MB)
        (16): Embedding(embedding_type=native, num_embeddings=1442, embedding_dim=128, precision=fp16, size=0.3521 MB)
        (17): Embedding(embedding_type=native, num_embeddings=975, embedding_dim=128, precision=fp16, size=0.238 MB)
        (18): Embedding(embedding_type=native, num_embeddings=128, embedding_dim=128, precision=fp16, size=0.0312 MB)
        (19): Embedding(embedding_type=native, num_embeddings=105, embedding_dim=128, precision=fp16, size=0.0256 MB)
        (20): Embedding(embedding_type=native, num_embeddings=63, embedding_dim=128, precision=fp16, size=0.0154 MB)
        (21): Embedding(embedding_type=native, num_embeddings=36, embedding_dim=128, precision=fp16, size=0.0088 MB)
        (22): Embedding(embedding_type=native, num_embeddings=15, embedding_dim=128, precision=fp16, size=0.0037 MB)
        (23): Embedding(embedding_type=native, num_embeddings=11, embedding_dim=128, precision=fp16, size=0.0027 MB)
        (24-25): 2 x Embedding(embedding_type=native, num_embeddings=4, embedding_dim=128, precision=fp16, size=0.001 MB)
      )
    )
    (mlp): TorchMlp(
      (layers): Sequential(
        (0): Linear(in_features=13, out_features=512, bias=True)
        (1): ReLU(inplace=True)
        (2): Linear(in_features=512, out_features=256, bias=True)
        (3): ReLU(inplace=True)
        (4): Linear(in_features=256, out_features=128, bias=True)
        (5): ReLU(inplace=True)
      )
    )
  )
  (top_model): DlrmTop(
    (mlp): TorchMlp(
      (layers): Sequential(
        (0): Linear(in_features=480, out_features=1024, bias=True)
        (1): ReLU(inplace=True)
        (2): Linear(in_features=1024, out_features=1024, bias=True)
        (3): ReLU(inplace=True)
        (4): Linear(in_features=1024, out_features=512, bias=True)
        (5): ReLU(inplace=True)
        (6): Linear(in_features=512, out_features=256, bias=True)
        (7): ReLU(inplace=True)
      )
    )
    (out): Linear(in_features=256, out_features=1, bias=True)
  )
)
&&&& RUNNING TensorRT.trtexec [TensorRT v8601] # trtexec --onnx=./model.onnx --staticPlugins=/usr/local/lib/python3.10/dist-packages/pytorch_embeddings/frobenius_operator/tensorrt/libfrobenius_operatorPlugin.so --loadInputs=numerical_features:./numerical_features.dat,categorical_features:./categorical_features.dat --inputIOFormats=fp16:chw,int32:ch
…
