Not using distributed mode
DistributedDlrm(
  interaction_op=dot, hash_indices=False
  (bottom_model): DlrmBottom(
    (embeddings): MultiTableEmbeddings(
      (embeddings): ModuleList(
        (0): Embedding(embedding_type=frobenius, num_embeddings=89189238, embedding_dim=128, precision=fp16, size=0.5778 MB, frobenius_rank=8, frobenius_blocks=4)
        (1): Embedding(embedding_type=frobenius, num_embeddings=80072576, embedding_dim=128, precision=fp16, size=0.5475 MB, frobenius_rank=8, frobenius_blocks=4)
        (2): Embedding(embedding_type=frobenius, num_embeddings=68920213, embedding_dim=128, precision=fp16, size=0.5081 MB, frobenius_rank=8, frobenius_blocks=4)
        (3): Embedding(embedding_type=frobenius, num_embeddings=49215541, embedding_dim=128, precision=fp16, size=0.4292 MB, frobenius_rank=8, frobenius_blocks=4)
        (4): Embedding(embedding_type=frobenius, num_embeddings=17392387, embedding_dim=128, precision=fp16, size=0.2557 MB, frobenius_rank=8, frobenius_blocks=4)
        (5): Embedding(embedding_type=native, num_embeddings=1962610, embedding_dim=128, precision=fp16, size=479.1528 MB)
        (6): Embedding(embedding_type=native, num_embeddings=497862, embedding_dim=128, precision=fp16, size=121.5483 MB)
        (7): Embedding(embedding_type=native, num_embeddings=368227, embedding_dim=128, precision=fp16, size=89.8992 MB)
        (8): Embedding(embedding_type=native, num_embeddings=37486, embedding_dim=128, precision=fp16, size=9.1519 MB)
        (9): Embedding(embedding_type=native, num_embeddings=20250, embedding_dim=128, precision=fp16, size=4.9438 MB)
        (10): Embedding(embedding_type=native, num_embeddings=17267, embedding_dim=128, precision=fp16, size=4.2156 MB)
        (11): Embedding(embedding_type=native, num_embeddings=12734, embedding_dim=128, precision=fp16, size=3.1089 MB)
        (12): Embedding(embedding_type=native, num_embeddings=11472, embedding_dim=128, precision=fp16, size=2.8008 MB)
        (13): Embedding(embedding_type=native, num_embeddings=7418, embedding_dim=128, precision=fp16, size=1.811 MB)
        (14): Embedding(embedding_type=native, num_embeddings=7117, embedding_dim=128, precision=fp16, size=1.7375 MB)
        (15): Embedding(embedding_type=native, num_embeddings=2209, embedding_dim=128, precision=fp16, size=0.5393 MB)
        (16): Embedding(embedding_type=native, num_embeddings=1474, embedding_dim=128, precision=fp16, size=0.3599 MB)
        (17): Embedding(embedding_type=native, num_embeddings=976, embedding_dim=128, precision=fp16, size=0.2383 MB)
        (18): Embedding(embedding_type=native, num_embeddings=136, embedding_dim=128, precision=fp16, size=0.0332 MB)
        (19): Embedding(embedding_type=native, num_embeddings=106, embedding_dim=128, precision=fp16, size=0.0259 MB)
        (20): Embedding(embedding_type=native, num_embeddings=63, embedding_dim=128, precision=fp16, size=0.0154 MB)
        (21): Embedding(embedding_type=native, num_embeddings=37, embedding_dim=128, precision=fp16, size=0.009 MB)
        (22): Embedding(embedding_type=native, num_embeddings=15, embedding_dim=128, precision=fp16, size=0.0037 MB)
        (23): Embedding(embedding_type=native, num_embeddings=11, embedding_dim=128, precision=fp16, size=0.0027 MB)
        (24-25): 2 x Embedding(embedding_type=native, num_embeddings=4, embedding_dim=128, precision=fp16, size=0.001 MB)
      )
    )
    (mlp): TorchMlp(
      (layers): Sequential(
        (0): Linear(in_features=13, out_features=512, bias=True)
        (1): ReLU(inplace=True)
        (2): Linear(in_features=512, out_features=256, bias=True)
        (3): ReLU(inplace=True)
        (4): Linear(in_features=256, out_features=128, bias=True)
        (5): ReLU(inplace=True)
      )
    )
  )
  (top_model): DlrmTop(
    (mlp): TorchMlp(
      (layers): Sequential(
        (0): Linear(in_features=480, out_features=1024, bias=True)
        (1): ReLU(inplace=True)
        (2): Linear(in_features=1024, out_features=1024, bias=True)
        (3): ReLU(inplace=True)
        (4): Linear(in_features=1024, out_features=512, bias=True)
        (5): ReLU(inplace=True)
        (6): Linear(in_features=512, out_features=256, bias=True)
        (7): ReLU(inplace=True)
      )
    )
    (out): Linear(in_features=256, out_features=1, bias=True)
  )
)
&&&& RUNNING TensorRT.trtexec [TensorRT v8601] # trtexec --onnx=./model.onnx --staticPlugins=/usr/local/lib/python3.10/dist-packages/pytorch_embeddings/frobenius_operator/tensorrt/libfrobenius_operatorPlugin.so --loadInputs=numerical_features:./numerical_features.dat,categorical_features:./categorical_features.dat --inputIOFormats=fp16:chw,int32:ch
…
