Not using distributed mode
DistributedDlrm(
  interaction_op=dot, hash_indices=False
  (bottom_model): DlrmBottom(
    (embeddings): MultiTableEmbeddings(
      (embeddings): ModuleList(
        (0): Embedding(embedding_type=frobenius, num_embeddings=292775614, embedding_dim=128, precision=fp16, size=2.092 MB, frobenius_rank=8, frobenius_blocks=4)
        (1): Embedding(embedding_type=frobenius, num_embeddings=227605432, embedding_dim=128, precision=fp16, size=1.844 MB, frobenius_rank=8, frobenius_blocks=4)
        (2): Embedding(embedding_type=frobenius, num_embeddings=187188510, embedding_dim=128, precision=fp16, size=1.672 MB, frobenius_rank=8, frobenius_blocks=4)
        (3): Embedding(embedding_type=frobenius, num_embeddings=130229467, embedding_dim=128, precision=fp16, size=1.396 MB, frobenius_rank=8, frobenius_blocks=4)
        (4): Embedding(embedding_type=frobenius, num_embeddings=40790948, embedding_dim=128, precision=fp16, size=0.782 MB, frobenius_rank=8, frobenius_blocks=4)
        (5): Embedding(embedding_type=native, num_embeddings=3067956, embedding_dim=128, precision=fp16, size=749.0127 MB)
        (6): Embedding(embedding_type=native, num_embeddings=590152, embedding_dim=128, precision=fp16, size=144.0801 MB)
        (7): Embedding(embedding_type=native, num_embeddings=405283, embedding_dim=128, precision=fp16, size=98.946 MB)
        (8): Embedding(embedding_type=native, num_embeddings=39061, embedding_dim=128, precision=fp16, size=9.5364 MB)
        (9): Embedding(embedding_type=native, num_embeddings=20266, embedding_dim=128, precision=fp16, size=4.9478 MB)
        (10): Embedding(embedding_type=native, num_embeddings=17296, embedding_dim=128, precision=fp16, size=4.2227 MB)
        (11): Embedding(embedding_type=native, num_embeddings=12974, embedding_dim=128, precision=fp16, size=3.1675 MB)
        (12): Embedding(embedding_type=native, num_embeddings=11939, embedding_dim=128, precision=fp16, size=2.9148 MB)
        (13): Embedding(embedding_type=native, num_embeddings=7425, embedding_dim=128, precision=fp16, size=1.8127 MB)
        (14): Embedding(embedding_type=native, num_embeddings=7123, embedding_dim=128, precision=fp16, size=1.739 MB)
        (15): Embedding(embedding_type=native, num_embeddings=2209, embedding_dim=128, precision=fp16, size=0.5393 MB)
        (16): Embedding(embedding_type=native, num_embeddings=1544, embedding_dim=128, precision=fp16, size=0.377 MB)
        (17): Embedding(embedding_type=native, num_embeddings=977, embedding_dim=128, precision=fp16, size=0.2385 MB)
        (18): Embedding(embedding_type=native, num_embeddings=155, embedding_dim=128, precision=fp16, size=0.0378 MB)
        (19): Embedding(embedding_type=native, num_embeddings=109, embedding_dim=128, precision=fp16, size=0.0266 MB)
        (20): Embedding(embedding_type=native, num_embeddings=64, embedding_dim=128, precision=fp16, size=0.0156 MB)
        (21): Embedding(embedding_type=native, num_embeddings=37, embedding_dim=128, precision=fp16, size=0.009 MB)
        (22): Embedding(embedding_type=native, num_embeddings=15, embedding_dim=128, precision=fp16, size=0.0037 MB)
        (23): Embedding(embedding_type=native, num_embeddings=11, embedding_dim=128, precision=fp16, size=0.0027 MB)
        (24-25): 2 x Embedding(embedding_type=native, num_embeddings=4, embedding_dim=128, precision=fp16, size=0.001 MB)
      )
    )
    (mlp): TorchMlp(
      (layers): Sequential(
        (0): Linear(in_features=13, out_features=512, bias=True)
        (1): ReLU(inplace=True)
        (2): Linear(in_features=512, out_features=256, bias=True)
        (3): ReLU(inplace=True)
        (4): Linear(in_features=256, out_features=128, bias=True)
        (5): ReLU(inplace=True)
      )
    )
  )
  (top_model): DlrmTop(
    (mlp): TorchMlp(
      (layers): Sequential(
        (0): Linear(in_features=480, out_features=1024, bias=True)
        (1): ReLU(inplace=True)
        (2): Linear(in_features=1024, out_features=1024, bias=True)
        (3): ReLU(inplace=True)
        (4): Linear(in_features=1024, out_features=512, bias=True)
        (5): ReLU(inplace=True)
        (6): Linear(in_features=512, out_features=256, bias=True)
        (7): ReLU(inplace=True)
      )
    )
    (out): Linear(in_features=256, out_features=1, bias=True)
  )
)
&&&& RUNNING TensorRT.trtexec [TensorRT v8601] # trtexec --onnx=./model.onnx --staticPlugins=/usr/local/lib/python3.10/dist-packages/pytorch_embeddings/frobenius_operator/tensorrt/libfrobenius_operatorPlugin.so --loadInputs=numerical_features:./numerical_features.dat,categorical_features:./categorical_features.dat --inputIOFormats=fp16:chw,int32:ch
…
