…
izes : [64, 128, 256, 512, 1024, 2048, 4096, 8192, 16384, 32768, 65536, 131072, 262144]  inference_benchmark_steps : 100000  auc_threshold : None  optimized_mlp : True  auc_device : GPU  backend : nccl  bottom_features_ordered : False  freeze_mlps : False  freeze_embeddings : False  Adam_embedding_optimizer : False  Adam_MLP_optimizer : False  ? : False  help : False  helpshort : False  helpfull : False  helpxml : False 
DistributedDlrm(
  interaction_op=cuda_dot, hash_indices=False
  (bottom_model): DlrmBottom(
    (embeddings): MultiTableEmbeddings(
      (embeddings): ModuleList(
        (0): Embedding(embedding_type=native, num_embeddings=8165896, embedding_dim=128, precision=fp32, size=3987.2539 MB)
        (1): Embedding(embedding_type=native, num_embeddings=7912889, embedding_dim=128, precision=fp32, size=3863.7153 MB)
        (2): Embedding(embedding_type=native, num_embeddings=7156453, embedding_dim=128, precision=fp32, size=3494.3618 MB)
        (3): Embedding(embedding_type=native, num_embeddings=5554114, embedding_dim=128, precision=fp32, size=2711.9697 MB)
        (4): Embedding(embedding_type=native, num_embeddings=2675940, embedding_dim=128, precision=fp32, size=1306.6113 MB)
        (5): Embedding(embedding_type=native, num_embeddings=582469, embedding_dim=128, precision=fp32, size=284.4087 MB)
        (6): Embedding(embedding_type=native, num_embeddings=302516, embedding_dim=128, precision=fp32, size=147.7129 MB)
        (7): Embedding(embedding_type=native, num_embeddings=245828, embedding_dim=128, precision=fp32, size=120.0332 MB)
        (8): Embedding(embedding_type=native, num_embeddings=33823, embedding_dim=128, precision=fp32, size=16.5151 MB)
        (9): Embedding(embedding_type=native, num_embeddings=20046, embedding_dim=128, precision=fp32, size=9.7881 MB)
        (10): Embedding(embedding_type=native, num_embeddings=17139, embedding_dim=128, precision=fp32, size=8.3687 MB)
        (11): Embedding(embedding_type=native, num_embeddings=12022, embedding_dim=128, precision=fp32, size=5.8701 MB)
        (12): Embedding(embedding_type=native, num_embeddings=10667, embedding_dim=128, precision=fp32, size=5.2085 MB)
        (13): Embedding(embedding_type=native, num_embeddings=7339, embedding_dim=128, precision=fp32, size=3.5835 MB)
        (14): Embedding(embedding_type=native, num_embeddings=7105, embedding_dim=128, precision=fp32, size=3.4692 MB)
        (15): Embedding(embedding_type=native, num_embeddings=2209, embedding_dim=128, precision=fp32, size=1.0786 MB)
        (16): Embedding(embedding_type=native, num_embeddings=1382, embedding_dim=128, precision=fp32, size=0.6748 MB)
        (17): Embedding(embedding_type=native, num_embeddings=968, embedding_dim=128, precision=fp32, size=0.4727 MB)
        (18): Embedding(embedding_type=native, num_embeddings=104, embedding_dim=128, precision=fp32, size=0.0508 MB)
        (19): Embedding(embedding_type=native, num_embeddings=97, embedding_dim=128, precision=fp32, size=0.0474 MB)
        (20): Embedding(embedding_type=native, num_embeddings=63, embedding_dim=128, precision=fp32, size=0.0308 MB)
        (21): Embedding(embedding_type=native, num_embeddings=35, embedding_dim=128, precision=fp32, size=0.0171 MB)
        (22): Embedding(embedding_type=native, num_embeddings=15, embedding_dim=128, precision=fp32, size=0.0073 MB)
        (23): Embedding(embedding_type=native, num_embeddings=11, embedding_dim=128, precision=fp32, size=0.0054 MB)
        (24): Embedding(embedding_type=native, num_embeddings=4, embedding_dim=128, precision=fp32, size=0.002 MB)
        (25): Embedding(embedding_type=native, num_embeddings=4, embedding_dim=128, precision=fp32, size=0.002 MB)
      )
    )
    (mlp): CppMlp(
      (mlp): AmpMlp(MLP sizes: [13, 512, 256, 128], Bias=1, activation=1)
    )
  )
  (top_model): DlrmTop(
    (mlp): CppMlp(
      (mlp): AmpMlp(MLP sizes: [480, 1024, 1024, 512, 256], Bias=1, activation=1)
    )
    (out): Linear(in_features=256, out_features=1, bias=True)
  )
)
DLL 2023-05-26 01:25:56.922091 - () mean_inference_latency_batch_64 : 0.0016025286207910507 s mean_inference_throughput_batch_64 : 39936.88422763264 samples/s mean_inference_latency_batch_128 : 0.0016444562653194024  mean_inference_throughput_batch_128 : 77837.27831468877  mean_inference_latency_batch_256 : 0.0016278545056581033  mean_inference_thr
…
