…
izes : [64, 128, 256, 512, 1024, 2048, 4096, 8192, 16384, 32768, 65536, 131072, 262144]  inference_benchmark_steps : 100000  auc_threshold : None  optimized_mlp : True  auc_device : GPU  backend : nccl  bottom_features_ordered : False  freeze_mlps : False  freeze_embeddings : False  Adam_embedding_optimizer : False  Adam_MLP_optimizer : False  ? : False  help : False  helpshort : False  helpfull : False  helpxml : False 
DistributedDlrm(
  interaction_op=cuda_dot, hash_indices=False
  (bottom_model): DlrmBottom(
    (embeddings): MultiTableEmbeddings(
      (embeddings): ModuleList(
        (0): Embedding(embedding_type=fpd, num_embeddings=48937457, embedding_dim=128, precision=fp32, size=1.7129 MB, frobenius_rank=8, frobenius_blocks=4)
        (1): Embedding(embedding_type=fpd, num_embeddings=45833188, embedding_dim=128, precision=fp32, size=1.6582 MB, frobenius_rank=8, frobenius_blocks=4)
        (2): Embedding(embedding_type=fpd, num_embeddings=40094537, embedding_dim=128, precision=fp32, size=1.5508 MB, frobenius_rank=8, frobenius_blocks=4)
        (3): Embedding(embedding_type=fpd, num_embeddings=29275261, embedding_dim=128, precision=fp32, size=1.3262 MB, frobenius_rank=8, frobenius_blocks=4)
        (4): Embedding(embedding_type=fpd, num_embeddings=11316796, embedding_dim=128, precision=fp32, size=0.8262 MB, frobenius_rank=8, frobenius_blocks=4)
        (5): Embedding(embedding_type=native, num_embeddings=1572176, embedding_dim=128, precision=fp32, size=767.6641 MB)
        (6): Embedding(embedding_type=native, num_embeddings=452104, embedding_dim=128, precision=fp32, size=220.7539 MB)
        (7): Embedding(embedding_type=native, num_embeddings=345139, embedding_dim=128, precision=fp32, size=168.5249 MB)
        (8): Embedding(embedding_type=native, num_embeddings=36747, embedding_dim=128, precision=fp32, size=17.9429 MB)
        (9): Embedding(embedding_type=native, num_embeddings=20244, embedding_dim=128, precision=fp32, size=9.8848 MB)
        (10): Embedding(embedding_type=native, num_embeddings=17246, embedding_dim=128, precision=fp32, size=8.4209 MB)
        (11): Embedding(embedding_type=native, num_embeddings=12607, embedding_dim=128, precision=fp32, size=6.1558 MB)
        (12): Embedding(embedding_type=native, num_embeddings=11268, embedding_dim=128, precision=fp32, size=5.502 MB)
        (13): Embedding(embedding_type=native, num_embeddings=7414, embedding_dim=128, precision=fp32, size=3.6201 MB)
        (14): Embedding(embedding_type=native, num_embeddings=7115, embedding_dim=128, precision=fp32, size=3.4741 MB)
        (15): Embedding(embedding_type=native, num_embeddings=2209, embedding_dim=128, precision=fp32, size=1.0786 MB)
        (16): Embedding(embedding_type=native, num_embeddings=1442, embedding_dim=128, precision=fp32, size=0.7041 MB)
        (17): Embedding(embedding_type=native, num_embeddings=975, embedding_dim=128, precision=fp32, size=0.4761 MB)
        (18): Embedding(embedding_type=native, num_embeddings=128, embedding_dim=128, precision=fp32, size=0.0625 MB)
        (19): Embedding(embedding_type=native, num_embeddings=105, embedding_dim=128, precision=fp32, size=0.0513 MB)
        (20): Embedding(embedding_type=native, num_embeddings=63, embedding_dim=128, precision=fp32, size=0.0308 MB)
        (21): Embedding(embedding_type=native, num_embeddings=36, embedding_dim=128, precision=fp32, size=0.0176 MB)
        (22): Embedding(embedding_type=native, num_embeddings=15, embedding_dim=128, precision=fp32, size=0.0073 MB)
        (23): Embedding(embedding_type=native, num_embeddings=11, embedding_dim=128, precision=fp32, size=0.0054 MB)
        (24): Embedding(embedding_type=native, num_embeddings=4, embedding_dim=128, precision=fp32, size=0.002 MB)
        (25): Embedding(embedding_type=native, num_embeddings=4, embedding_dim=128, precision=fp32, size=0.002 MB)
      )
    )
    (mlp): CppMlp(
      (mlp): AmpMlp(MLP sizes: [13, 512, 256, 128], Bias=1, activation=1)
    )
  )
  (top_model): DlrmTop(
    (mlp): CppMlp(
      (mlp): AmpMlp(MLP sizes: [480, 1024, 1024, 512, 256], Bias=1, activation=1)
    )
    (out): Linear(in_features=256, out_features=1, bias=True)
  )
)
Epoch:[0/3] [200/64013]  eta: 0:30:18  loss: 0.18190458  step_time: 0.028504  lr: 0.6030
Epoch:[0/3] [400/64013]  eta: 0:30:27  loss: 0.13952920  step_time: 0.028949  lr: 1.2030
Epoch:[0/3] [600/64013]  eta: 0:30:29  loss: 0.13781562  step_time: 0.029095  lr: 1.8030
Epoch:[0/3] [800/64013]  eta: 0:38:27  loss: 0.13679606  step_time: 0.059438  lr: 2.4030
…
