…
ch_sizes : [64, 128, 256, 512, 1024, 2048, 4096, 8192, 16384, 32768, 65536, 131072, 262144]  inference_benchmark_steps : 100000  auc_threshold : None  optimized_mlp : False  auc_device : GPU  backend : nccl  bottom_features_ordered : False  freeze_mlps : False  freeze_embeddings : False  Adam_embedding_optimizer : False  Adam_MLP_optimizer : False  ? : False  help : False  helpshort : False  helpfull : False  helpxml : False 
DistributedDlrm(
  interaction_op=dot, hash_indices=False
  (bottom_model): DlrmBottom(
    (embeddings): MultiTableEmbeddings(
      (embeddings): ModuleList(
        (0): Embedding(embedding_type=frobenius, num_embeddings=292775614, embedding_dim=128, precision=fp32, size=1.046 MB, frobenius_rank=8, frobenius_blocks=4)
        (1): Embedding(embedding_type=frobenius, num_embeddings=227605432, embedding_dim=128, precision=fp32, size=0.9222 MB, frobenius_rank=8, frobenius_blocks=4)
        (2): Embedding(embedding_type=frobenius, num_embeddings=187188510, embedding_dim=128, precision=fp32, size=0.8362 MB, frobenius_rank=8, frobenius_blocks=4)
        (3): Embedding(embedding_type=frobenius, num_embeddings=130229467, embedding_dim=128, precision=fp32, size=0.6978 MB, frobenius_rank=8, frobenius_blocks=4)
        (4): Embedding(embedding_type=frobenius, num_embeddings=40790948, embedding_dim=128, precision=fp32, size=0.391 MB, frobenius_rank=8, frobenius_blocks=4)
        (5): Embedding(embedding_type=native, num_embeddings=3067956, embedding_dim=128, precision=fp32, size=1498.0254 MB)
        (6): Embedding(embedding_type=native, num_embeddings=590152, embedding_dim=128, precision=fp32, size=288.1602 MB)
        (7): Embedding(embedding_type=native, num_embeddings=405283, embedding_dim=128, precision=fp32, size=197.8921 MB)
        (8): Embedding(embedding_type=native, num_embeddings=39061, embedding_dim=128, precision=fp32, size=19.0728 MB)
        (9): Embedding(embedding_type=native, num_embeddings=20266, embedding_dim=128, precision=fp32, size=9.8955 MB)
        (10): Embedding(embedding_type=native, num_embeddings=17296, embedding_dim=128, precision=fp32, size=8.4453 MB)
        (11): Embedding(embedding_type=native, num_embeddings=12974, embedding_dim=128, precision=fp32, size=6.335 MB)
        (12): Embedding(embedding_type=native, num_embeddings=11939, embedding_dim=128, precision=fp32, size=5.8296 MB)
        (13): Embedding(embedding_type=native, num_embeddings=7425, embedding_dim=128, precision=fp32, size=3.6255 MB)
        (14): Embedding(embedding_type=native, num_embeddings=7123, embedding_dim=128, precision=fp32, size=3.478 MB)
        (15): Embedding(embedding_type=native, num_embeddings=2209, embedding_dim=128, precision=fp32, size=1.0786 MB)
        (16): Embedding(embedding_type=native, num_embeddings=1544, embedding_dim=128, precision=fp32, size=0.7539 MB)
        (17): Embedding(embedding_type=native, num_embeddings=977, embedding_dim=128, precision=fp32, size=0.4771 MB)
        (18): Embedding(embedding_type=native, num_embeddings=155, embedding_dim=128, precision=fp32, size=0.0757 MB)
        (19): Embedding(embedding_type=native, num_embeddings=109, embedding_dim=128, precision=fp32, size=0.0532 MB)
        (20): Embedding(embedding_type=native, num_embeddings=64, embedding_dim=128, precision=fp32, size=0.0312 MB)
        (21): Embedding(embedding_type=native, num_embeddings=37, embedding_dim=128, precision=fp32, size=0.0181 MB)
        (22): Embedding(embedding_type=native, num_embeddings=15, embedding_dim=128, precision=fp32, size=0.0073 MB)
        (23): Embedding(embedding_type=native, num_embeddings=11, embedding_dim=128, precision=fp32, size=0.0054 MB)
        (24-25): 2 x Embedding(embedding_type=native, num_embeddings=4, embedding_dim=128, precision=fp32, size=0.002 MB)
      )
    )
    (mlp): TorchMlp(
      (layers): Sequential(
        (0): Linear(in_features=13, out_features=512, bias=True)
        (1): ReLU(inplace=True)
        (2): Linear(in_features=512, out_features=256, bias=True)
        (3): ReLU(inplace=True)
        (4): Linear(in_features=256, out_features=128, bias=True)
        (5): ReLU(inplace=True)
      )
    )
  )
  (top_model): DlrmTop(
    (mlp): TorchMlp(
      (layers): Sequential(
        (0): Linear(in_features=480, out_features=1024, bias=True)
        (1): ReLU(inplace=True)
        (2): Linear(in_features=1024, out_features=1024, bias=True)
        (3): ReLU(inplace=True)
        (4): Linear(in_features=1024, out_features=512, bias=True)
        (5): ReLU(inplace=True)
        (6): Linear(in_features=512, out_features=256, bias=True)
        (7): ReLU(inplace=True)
      )
    )
    (out): Linear(in_features=256, out_features=1, bias=True)
  )
)
Epoch:[0/3] [200/64013]  eta: 0:33:14  loss: 0.18014282  step_time: 0.031260  lr: 0.6030
Epoch:[0/3] [400/64013]  eta: 0:33:05  loss: 0.14002089  step_time: 0.031163  lr: 1.2030
Epoch:[0/3] [600/64013]  eta: 0:33:00  loss: 0.13823974  step_time: 0.031283  lr: 1.8030
Epoch:[0/3] [800/64013]  eta: 0:32:54  loss: 0.13671729  step_time: 0.031253  lr: 2.4030
…
