…
zes : [64, 128, 256, 512, 1024, 2048, 4096, 8192, 16384, 32768, 65536, 131072, 262144]  inference_benchmark_steps : 100000  auc_threshold : None  optimized_mlp : False  auc_device : GPU  backend : nccl  bottom_features_ordered : False  freeze_mlps : False  freeze_embeddings : False  Adam_embedding_optimizer : False  Adam_MLP_optimizer : False  ? : False  help : False  helpshort : False  helpfull : False  helpxml : False 
DistributedDlrm(
  interaction_op=cuda_dot, hash_indices=False
  (bottom_model): DlrmBottom(
    (embeddings): MultiTableEmbeddings(
      (embeddings): ModuleList(
        (0): Embedding(embedding_type=frobenius, num_embeddings=8165896, embedding_dim=128, precision=fp32, size=1.404 MB, frobenius_rank=16, frobenius_blocks=4)
        (1): Embedding(embedding_type=frobenius, num_embeddings=7912889, embedding_dim=128, precision=fp32, size=1.384 MB, frobenius_rank=16, frobenius_blocks=4)
        (2): Embedding(embedding_type=frobenius, num_embeddings=7156453, embedding_dim=128, precision=fp32, size=1.316 MB, frobenius_rank=16, frobenius_blocks=4)
        (3): Embedding(embedding_type=frobenius, num_embeddings=5554114, embedding_dim=128, precision=fp32, size=1.161 MB, frobenius_rank=16, frobenius_blocks=4)
        (4): Embedding(embedding_type=frobenius, num_embeddings=2675940, embedding_dim=128, precision=fp32, size=0.8086 MB, frobenius_rank=16, frobenius_blocks=4)
        (5): Embedding(embedding_type=native, num_embeddings=582469, embedding_dim=128, precision=fp32, size=284.4087 MB)
        (6): Embedding(embedding_type=native, num_embeddings=302516, embedding_dim=128, precision=fp32, size=147.7129 MB)
        (7): Embedding(embedding_type=native, num_embeddings=245828, embedding_dim=128, precision=fp32, size=120.0332 MB)
        (8): Embedding(embedding_type=native, num_embeddings=33823, embedding_dim=128, precision=fp32, size=16.5151 MB)
        (9): Embedding(embedding_type=native, num_embeddings=20046, embedding_dim=128, precision=fp32, size=9.7881 MB)
        (10): Embedding(embedding_type=native, num_embeddings=17139, embedding_dim=128, precision=fp32, size=8.3687 MB)
        (11): Embedding(embedding_type=native, num_embeddings=12022, embedding_dim=128, precision=fp32, size=5.8701 MB)
        (12): Embedding(embedding_type=native, num_embeddings=10667, embedding_dim=128, precision=fp32, size=5.2085 MB)
        (13): Embedding(embedding_type=native, num_embeddings=7339, embedding_dim=128, precision=fp32, size=3.5835 MB)
        (14): Embedding(embedding_type=native, num_embeddings=7105, embedding_dim=128, precision=fp32, size=3.4692 MB)
        (15): Embedding(embedding_type=native, num_embeddings=2209, embedding_dim=128, precision=fp32, size=1.0786 MB)
        (16): Embedding(embedding_type=native, num_embeddings=1382, embedding_dim=128, precision=fp32, size=0.6748 MB)
        (17): Embedding(embedding_type=native, num_embeddings=968, embedding_dim=128, precision=fp32, size=0.4727 MB)
        (18): Embedding(embedding_type=native, num_embeddings=104, embedding_dim=128, precision=fp32, size=0.0508 MB)
        (19): Embedding(embedding_type=native, num_embeddings=97, embedding_dim=128, precision=fp32, size=0.0474 MB)
        (20): Embedding(embedding_type=native, num_embeddings=63, embedding_dim=128, precision=fp32, size=0.0308 MB)
        (21): Embedding(embedding_type=native, num_embeddings=35, embedding_dim=128, precision=fp32, size=0.0171 MB)
        (22): Embedding(embedding_type=native, num_embeddings=15, embedding_dim=128, precision=fp32, size=0.0073 MB)
        (23): Embedding(embedding_type=native, num_embeddings=11, embedding_dim=128, precision=fp32, size=0.0054 MB)
        (24-25): 2 x Embedding(embedding_type=native, num_embeddings=4, embedding_dim=128, precision=fp32, size=0.002 MB)
      )
    )
    (mlp): TorchMlp(
      (layers): Sequential(
        (0): Linear(in_features=13, out_features=512, bias=True)
        (1): ReLU(inplace=True)
        (2): Linear(in_features=512, out_features=256, bias=True)
        (3): ReLU(inplace=True)
        (4): Linear(in_features=256, out_features=128, bias=True)
        (5): ReLU(inplace=True)
      )
    )
  )
  (top_model): DlrmTop(
    (mlp): TorchMlp(
      (layers): Sequential(
        (0): Linear(in_features=480, out_features=1024, bias=True)
        (1): ReLU(inplace=True)
        (2): Linear(in_features=1024, out_features=1024, bias=True)
        (3): ReLU(inplace=True)
        (4): Linear(in_features=1024, out_features=512, bias=True)
        (5): ReLU(inplace=True)
        (6): Linear(in_features=512, out_features=256, bias=True)
        (7): ReLU(inplace=True)
      )
    )
    (out): Linear(in_features=256, out_features=1, bias=True)
  )
)
Epoch:[0/3] [200/64013]  eta: 0:44:07  loss: 0.18013695  step_time: 0.041490  lr: 0.6030
Epoch:[0/3] [400/64013]  eta: 0:37:40  loss: 0.13981305  step_time: 0.029587  lr: 1.2030
Epoch:[0/3] [600/64013]  eta: 0:37:36  loss: 0.13830468  step_time: 0.035698  lr: 1.8030
Epoch:[0/3] [800/64013]  eta: 0:35:52  loss: 0.13672352  step_time: 0.029420  lr: 2.4030
…
