…
zes : [64, 128, 256, 512, 1024, 2048, 4096, 8192, 16384, 32768, 65536, 131072, 262144]  inference_benchmark_steps : 100000  auc_threshold : None  optimized_mlp : False  auc_device : GPU  backend : nccl  bottom_features_ordered : False  freeze_mlps : False  freeze_embeddings : False  Adam_embedding_optimizer : False  Adam_MLP_optimizer : False  ? : False  help : False  helpshort : False  helpfull : False  helpxml : False 
DistributedDlrm(
  interaction_op=cuda_dot, hash_indices=False
  (bottom_model): DlrmBottom(
    (embeddings): MultiTableEmbeddings(
      (embeddings): ModuleList(
        (0): Embedding(embedding_type=frobenius, num_embeddings=48937457, embedding_dim=128, precision=fp32, size=1.713 MB, frobenius_rank=8, frobenius_blocks=4)
        (1): Embedding(embedding_type=frobenius, num_embeddings=45833188, embedding_dim=128, precision=fp32, size=1.658 MB, frobenius_rank=8, frobenius_blocks=4)
        (2): Embedding(embedding_type=frobenius, num_embeddings=40094537, embedding_dim=128, precision=fp32, size=1.551 MB, frobenius_rank=8, frobenius_blocks=4)
        (3): Embedding(embedding_type=frobenius, num_embeddings=29275261, embedding_dim=128, precision=fp32, size=1.326 MB, frobenius_rank=8, frobenius_blocks=4)
        (4): Embedding(embedding_type=frobenius, num_embeddings=11316796, embedding_dim=128, precision=fp32, size=0.8267 MB, frobenius_rank=8, frobenius_blocks=4)
        (5): Embedding(embedding_type=native, num_embeddings=1572176, embedding_dim=128, precision=fp32, size=767.6641 MB)
        (6): Embedding(embedding_type=native, num_embeddings=452104, embedding_dim=128, precision=fp32, size=220.7539 MB)
        (7): Embedding(embedding_type=native, num_embeddings=345139, embedding_dim=128, precision=fp32, size=168.5249 MB)
        (8): Embedding(embedding_type=native, num_embeddings=36747, embedding_dim=128, precision=fp32, size=17.9429 MB)
        (9): Embedding(embedding_type=native, num_embeddings=20244, embedding_dim=128, precision=fp32, size=9.8848 MB)
        (10): Embedding(embedding_type=native, num_embeddings=17246, embedding_dim=128, precision=fp32, size=8.4209 MB)
        (11): Embedding(embedding_type=native, num_embeddings=12607, embedding_dim=128, precision=fp32, size=6.1558 MB)
        (12): Embedding(embedding_type=native, num_embeddings=11268, embedding_dim=128, precision=fp32, size=5.502 MB)
        (13): Embedding(embedding_type=native, num_embeddings=7414, embedding_dim=128, precision=fp32, size=3.6201 MB)
        (14): Embedding(embedding_type=native, num_embeddings=7115, embedding_dim=128, precision=fp32, size=3.4741 MB)
        (15): Embedding(embedding_type=native, num_embeddings=2209, embedding_dim=128, precision=fp32, size=1.0786 MB)
        (16): Embedding(embedding_type=native, num_embeddings=1442, embedding_dim=128, precision=fp32, size=0.7041 MB)
        (17): Embedding(embedding_type=native, num_embeddings=975, embedding_dim=128, precision=fp32, size=0.4761 MB)
        (18): Embedding(embedding_type=native, num_embeddings=128, embedding_dim=128, precision=fp32, size=0.0625 MB)
        (19): Embedding(embedding_type=native, num_embeddings=105, embedding_dim=128, precision=fp32, size=0.0513 MB)
        (20): Embedding(embedding_type=native, num_embeddings=63, embedding_dim=128, precision=fp32, size=0.0308 MB)
        (21): Embedding(embedding_type=native, num_embeddings=36, embedding_dim=128, precision=fp32, size=0.0176 MB)
        (22): Embedding(embedding_type=native, num_embeddings=15, embedding_dim=128, precision=fp32, size=0.0073 MB)
        (23): Embedding(embedding_type=native, num_embeddings=11, embedding_dim=128, precision=fp32, size=0.0054 MB)
        (24-25): 2 x Embedding(embedding_type=native, num_embeddings=4, embedding_dim=128, precision=fp32, size=0.002 MB)
      )
    )
    (mlp): TorchMlp(
      (layers): Sequential(
        (0): Linear(in_features=13, out_features=512, bias=True)
        (1): ReLU(inplace=True)
        (2): Linear(in_features=512, out_features=256, bias=True)
        (3): ReLU(inplace=True)
        (4): Linear(in_features=256, out_features=128, bias=True)
        (5): ReLU(inplace=True)
      )
    )
  )
  (top_model): DlrmTop(
    (mlp): TorchMlp(
      (layers): Sequential(
        (0): Linear(in_features=480, out_features=1024, bias=True)
        (1): ReLU(inplace=True)
        (2): Linear(in_features=1024, out_features=1024, bias=True)
        (3): ReLU(inplace=True)
        (4): Linear(in_features=1024, out_features=512, bias=True)
        (5): ReLU(inplace=True)
        (6): Linear(in_features=512, out_features=256, bias=True)
        (7): ReLU(inplace=True)
      )
    )
    (out): Linear(in_features=256, out_features=1, bias=True)
  )
)
Epoch:[0/3] [200/64013]  eta: 0:46:41  loss: 0.18463621  step_time: 0.043905  lr: 0.6030
Epoch:[0/3] [400/64013]  eta: 0:38:12  loss: 0.14013937  step_time: 0.028172  lr: 1.2030
Epoch:[0/3] [600/64013]  eta: 0:37:30  loss: 0.13834196  step_time: 0.034400  lr: 1.8030
Epoch:[0/3] [800/64013]  eta: 0:35:25  loss: 0.13720904  step_time: 0.028002  lr: 2.4030
…
