…
izes : [64, 128, 256, 512, 1024, 2048, 4096, 8192, 16384, 32768, 65536, 131072, 262144]  inference_benchmark_steps : 100000  auc_threshold : None  optimized_mlp : True  auc_device : GPU  backend : nccl  bottom_features_ordered : False  freeze_mlps : False  freeze_embeddings : False  Adam_embedding_optimizer : False  Adam_MLP_optimizer : False  ? : False  help : False  helpshort : False  helpfull : False  helpxml : False 
DistributedDlrm(
  interaction_op=cuda_dot, hash_indices=False
  (bottom_model): DlrmBottom(
    (embeddings): MultiTableEmbeddings(
      (embeddings): ModuleList(
        (0): Embedding(embedding_type=fpd, num_embeddings=89189238, embedding_dim=128, precision=fp32, size=2.3105 MB, frobenius_rank=8, frobenius_blocks=4)
        (1): Embedding(embedding_type=fpd, num_embeddings=80072576, embedding_dim=128, precision=fp32, size=2.1895 MB, frobenius_rank=8, frobenius_blocks=4)
        (2): Embedding(embedding_type=fpd, num_embeddings=68920213, embedding_dim=128, precision=fp32, size=2.0312 MB, frobenius_rank=8, frobenius_blocks=4)
        (3): Embedding(embedding_type=fpd, num_embeddings=49215541, embedding_dim=128, precision=fp32, size=1.7168 MB, frobenius_rank=8, frobenius_blocks=4)
        (4): Embedding(embedding_type=fpd, num_embeddings=17392387, embedding_dim=128, precision=fp32, size=1.0234 MB, frobenius_rank=8, frobenius_blocks=4)
        (5): Embedding(embedding_type=native, num_embeddings=1962610, embedding_dim=128, precision=fp32, size=958.3057 MB)
        (6): Embedding(embedding_type=native, num_embeddings=497862, embedding_dim=128, precision=fp32, size=243.0967 MB)
        (7): Embedding(embedding_type=native, num_embeddings=368227, embedding_dim=128, precision=fp32, size=179.7983 MB)
        (8): Embedding(embedding_type=native, num_embeddings=37486, embedding_dim=128, precision=fp32, size=18.3037 MB)
        (9): Embedding(embedding_type=native, num_embeddings=20250, embedding_dim=128, precision=fp32, size=9.8877 MB)
        (10): Embedding(embedding_type=native, num_embeddings=17267, embedding_dim=128, precision=fp32, size=8.4312 MB)
        (11): Embedding(embedding_type=native, num_embeddings=12734, embedding_dim=128, precision=fp32, size=6.2178 MB)
        (12): Embedding(embedding_type=native, num_embeddings=11472, embedding_dim=128, precision=fp32, size=5.6016 MB)
        (13): Embedding(embedding_type=native, num_embeddings=7418, embedding_dim=128, precision=fp32, size=3.6221 MB)
        (14): Embedding(embedding_type=native, num_embeddings=7117, embedding_dim=128, precision=fp32, size=3.4751 MB)
        (15): Embedding(embedding_type=native, num_embeddings=2209, embedding_dim=128, precision=fp32, size=1.0786 MB)
        (16): Embedding(embedding_type=native, num_embeddings=1474, embedding_dim=128, precision=fp32, size=0.7197 MB)
        (17): Embedding(embedding_type=native, num_embeddings=976, embedding_dim=128, precision=fp32, size=0.4766 MB)
        (18): Embedding(embedding_type=native, num_embeddings=136, embedding_dim=128, precision=fp32, size=0.0664 MB)
        (19): Embedding(embedding_type=native, num_embeddings=106, embedding_dim=128, precision=fp32, size=0.0518 MB)
        (20): Embedding(embedding_type=native, num_embeddings=63, embedding_dim=128, precision=fp32, size=0.0308 MB)
        (21): Embedding(embedding_type=native, num_embeddings=37, embedding_dim=128, precision=fp32, size=0.0181 MB)
        (22): Embedding(embedding_type=native, num_embeddings=15, embedding_dim=128, precision=fp32, size=0.0073 MB)
        (23): Embedding(embedding_type=native, num_embeddings=11, embedding_dim=128, precision=fp32, size=0.0054 MB)
        (24): Embedding(embedding_type=native, num_embeddings=4, embedding_dim=128, precision=fp32, size=0.002 MB)
        (25): Embedding(embedding_type=native, num_embeddings=4, embedding_dim=128, precision=fp32, size=0.002 MB)
      )
    )
    (mlp): CppMlp(
      (mlp): AmpMlp(MLP sizes: [13, 512, 256, 128], Bias=1, activation=1)
    )
  )
  (top_model): DlrmTop(
    (mlp): CppMlp(
      (mlp): AmpMlp(MLP sizes: [480, 1024, 1024, 512, 256], Bias=1, activation=1)
    )
    (out): Linear(in_features=256, out_features=1, bias=True)
  )
)
Epoch:[0/3] [200/64013]  eta: 0:30:42  loss: 0.17932421  step_time: 0.028880  lr: 0.6030
Epoch:[0/3] [400/64013]  eta: 0:30:55  loss: 0.14002599  step_time: 0.029453  lr: 1.2030
Epoch:[0/3] [600/64013]  eta: 0:31:20  loss: 0.13852468  step_time: 0.030630  lr: 1.8030
Epoch:[0/3] [800/64013]  eta: 0:31:12  loss: 0.13714293  step_time: 0.029526  lr: 2.4030
…
